…
Using downloaded and verified file: /home/users/nus/idmwyk/scratch/temp/dataset/aokvqa/aokvqa_v1p0_train.json
vis_path:/home/users/nus/idmwyk/scratch/temp/dataset/coco/images/train2014
len(exist_annotation):11106
Using downloaded and verified file: /home/users/nus/idmwyk/scratch/temp/dataset/gqa/train_balanced_questions.json
vis_path:/home/users/nus/idmwyk/scratch/temp/dataset/gqa/images/train2014
trainable params: 27262976 || all params: 8057524224 || trainable%: 0.33835425426081844
Position interpolate from 16x16 to 32x32
model arch:
 MiniGPTv4(
  (llama_model): PeftModelForCausalLM(
    (base_model): LoraModel(
      (model): LlamaForCausalLM(
        (model): LlamaModel(
          (embed_tokens): Embedding(128256, 4096)
          (layers): ModuleList(
            (0-31): 32 x LlamaDecoderLayer(
              (self_attn): LlamaAttention(
                (q_proj): Linear(
                  in_features=4096, out_features=4096, bias=False
                  (lora_dropout): Dropout(p=0.05, inplace=False)
                  (lora_A): Linear(in_features=4096, out_features=64, bias=False)
                  (lora_B): Linear(in_features=64, out_features=4096, bias=False)
                )
                (k_proj): Linear(in_features=4096, out_features=1024, bias=False)
                (v_proj): Linear(
                  in_features=4096, out_features=1024, bias=False
                  (lora_dropout): Dropout(p=0.05, inplace=False)
                  (lora_A): Linear(in_features=4096, out_features=64, bias=False)
                  (lora_B): Linear(in_features=64, out_features=1024, bias=False)
                )
                (o_proj): Linear(in_features=4096, out_features=4096, bias=False)
                (rotary_emb): LlamaRotaryEmbedding()
              )
              (mlp): LlamaMLP(
                (gate_proj): Linear(in_features=4096, out_features=14336, bias=False)
                (up_proj): Linear(in_features=4096, out_features=14336, bias=False)
                (down_proj): Linear(in_features=14336, out_features=4096, bias=False)
                (act_fn): SiLU()
              )
              (input_layernorm): LlamaRMSNorm((4096,), eps=1e-05)
              (post_attention_layernorm): LlamaRMSNorm((4096,), eps=1e-05)
            )
          )
          (norm): LlamaRMSNorm((4096,), eps=1e-05)
          (rotary_emb): LlamaRotaryEmbedding()
        )
        (lm_head): CastOutputToFloat(
          (0): Linear(in_features=4096, out_features=128256, bias=False)
        )
      )
    )
  )
  (visual_encoder): VisionTransformer(
    (patch_embed): PatchEmbed(
      (proj): Conv2d(3, 1408, kernel_size=(14, 14), stride=(14, 14))
    )
    (pos_drop): Dropout(p=0.0, inplace=False)
    (blocks): ModuleList(
      (0-38): 39 x Block(
        (norm1): LayerNorm((1408,), eps=1e-06, elementwise_affine=True)
        (attn): Attention(
          (qkv): Linear(in_features=1408, out_features=4224, bias=False)
          (attn_drop): Dropout(p=0.0, inplace=False)
          (proj): Linear(in_features=1408, out_features=1408, bias=True)
          (proj_drop): Dropout(p=0.0, inplace=False)
        )
        (drop_path): Identity()
        (norm2): LayerNorm((1408,), eps=1e-06, elementwise_affine=True)
        (mlp): Mlp(
          (fc1): Linear(in_features=1408, out_features=6144, bias=True)
          (act): GELU(approximate='none')
          (fc2): Linear(in_features=6144, out_features=1408, bias=True)
          (drop): Dropout(p=0.0, inplace=False)
        )
      )
    )
  )
  (ln_vision): LayerNorm((1408,), eps=1e-05, elementwise_affine=True)
  (local_attn): LocalAttention(
    (txt): Linear(in_features=4096, out_features=1408, bias=True)
    (img): Linear(in_features=1408, out_features=1408, bias=True)
  )
  (llama_proj): Linear(in_features=5632, out_features=4096, bias=True)
)
batch sizes [[4, 4, 4, 4, 4, 4, 4, 4, 4, 4, 4, 4, 4, 4, 4, 4]]
module.llama_model.base_model.model.model.layers.0.self_attn.q_proj.lora_A.weight
module.llama_model.base_model.model.model.layers.0.self_attn.q_proj.lora_B.weight
module.llama_model.base_model.model.model.layers.0.self_attn.v_proj.lora_A.weight
module.llama_model.base_model.model.model.layers.0.self_attn.v_proj.lora_B.weight
…
